{
    "Model": "ResNet20v1_FOR_CIFAR",
    "Model Size Trainable": 272570,
    "Model Size Total": 272570,
    "Model Structure": [
        "(conv1): Conv2d(3, 16, kernel_size=(3, 3), stride=(1, 1), padding=(1, 1), bias=False)",
        "(bn1): BatchNorm2d(16, eps=1e-05, momentum=0.1, affine=True, track_running_stats=True)",
        "(relu): ReLU(inplace=True)",
        "(conv2_x): Sequential(",
        "  (0): ResNetv1_BasicBlock(",
        "    (conv1): Conv2d(16, 16, kernel_size=(3, 3), stride=(1, 1), padding=(1, 1), bias=False)",
        "    (bn1): BatchNorm2d(16, eps=1e-05, momentum=0.1, affine=True, track_running_stats=True)",
        "    (relu1): ReLU(inplace=True)",
        "    (conv2): Conv2d(16, 16, kernel_size=(3, 3), stride=(1, 1), padding=(1, 1), bias=False)",
        "    (bn2): BatchNorm2d(16, eps=1e-05, momentum=0.1, affine=True, track_running_stats=True)",
        "    (relu2): ReLU(inplace=True)",
        "  )",
        "  (1): ResNetv1_BasicBlock(",
        "    (conv1): Conv2d(16, 16, kernel_size=(3, 3), stride=(1, 1), padding=(1, 1), bias=False)",
        "    (bn1): BatchNorm2d(16, eps=1e-05, momentum=0.1, affine=True, track_running_stats=True)",
        "    (relu1): ReLU(inplace=True)",
        "    (conv2): Conv2d(16, 16, kernel_size=(3, 3), stride=(1, 1), padding=(1, 1), bias=False)",
        "    (bn2): BatchNorm2d(16, eps=1e-05, momentum=0.1, affine=True, track_running_stats=True)",
        "    (relu2): ReLU(inplace=True)",
        "  )",
        "  (2): ResNetv1_BasicBlock(",
        "    (conv1): Conv2d(16, 16, kernel_size=(3, 3), stride=(1, 1), padding=(1, 1), bias=False)",
        "    (bn1): BatchNorm2d(16, eps=1e-05, momentum=0.1, affine=True, track_running_stats=True)",
        "    (relu1): ReLU(inplace=True)",
        "    (conv2): Conv2d(16, 16, kernel_size=(3, 3), stride=(1, 1), padding=(1, 1), bias=False)",
        "    (bn2): BatchNorm2d(16, eps=1e-05, momentum=0.1, affine=True, track_running_stats=True)",
        "    (relu2): ReLU(inplace=True)",
        "  )",
        ")",
        "(conv3_x): Sequential(",
        "  (0): ResNetv1_BasicBlock(",
        "    (conv1): Conv2d(16, 32, kernel_size=(3, 3), stride=(2, 2), padding=(1, 1), bias=False)",
        "    (bn1): BatchNorm2d(32, eps=1e-05, momentum=0.1, affine=True, track_running_stats=True)",
        "    (relu1): ReLU(inplace=True)",
        "    (conv2): Conv2d(32, 32, kernel_size=(3, 3), stride=(1, 1), padding=(1, 1), bias=False)",
        "    (bn2): BatchNorm2d(32, eps=1e-05, momentum=0.1, affine=True, track_running_stats=True)",
        "    (relu2): ReLU(inplace=True)",
        "    (downsample): Sequential(",
        "      (0): Conv2d(16, 32, kernel_size=(1, 1), stride=(2, 2))",
        "      (1): BatchNorm2d(32, eps=1e-05, momentum=0.1, affine=True, track_running_stats=True)",
        "    )",
        "  )",
        "  (1): ResNetv1_BasicBlock(",
        "    (conv1): Conv2d(32, 32, kernel_size=(3, 3), stride=(1, 1), padding=(1, 1), bias=False)",
        "    (bn1): BatchNorm2d(32, eps=1e-05, momentum=0.1, affine=True, track_running_stats=True)",
        "    (relu1): ReLU(inplace=True)",
        "    (conv2): Conv2d(32, 32, kernel_size=(3, 3), stride=(1, 1), padding=(1, 1), bias=False)",
        "    (bn2): BatchNorm2d(32, eps=1e-05, momentum=0.1, affine=True, track_running_stats=True)",
        "    (relu2): ReLU(inplace=True)",
        "  )",
        "  (2): ResNetv1_BasicBlock(",
        "    (conv1): Conv2d(32, 32, kernel_size=(3, 3), stride=(1, 1), padding=(1, 1), bias=False)",
        "    (bn1): BatchNorm2d(32, eps=1e-05, momentum=0.1, affine=True, track_running_stats=True)",
        "    (relu1): ReLU(inplace=True)",
        "    (conv2): Conv2d(32, 32, kernel_size=(3, 3), stride=(1, 1), padding=(1, 1), bias=False)",
        "    (bn2): BatchNorm2d(32, eps=1e-05, momentum=0.1, affine=True, track_running_stats=True)",
        "    (relu2): ReLU(inplace=True)",
        "  )",
        ")",
        "(conv4_x): Sequential(",
        "  (0): ResNetv1_BasicBlock(",
        "    (conv1): Conv2d(32, 64, kernel_size=(3, 3), stride=(2, 2), padding=(1, 1), bias=False)",
        "    (bn1): BatchNorm2d(64, eps=1e-05, momentum=0.1, affine=True, track_running_stats=True)",
        "    (relu1): ReLU(inplace=True)",
        "    (conv2): Conv2d(64, 64, kernel_size=(3, 3), stride=(1, 1), padding=(1, 1), bias=False)",
        "    (bn2): BatchNorm2d(64, eps=1e-05, momentum=0.1, affine=True, track_running_stats=True)",
        "    (relu2): ReLU(inplace=True)",
        "    (downsample): Sequential(",
        "      (0): Conv2d(32, 64, kernel_size=(1, 1), stride=(2, 2))",
        "      (1): BatchNorm2d(64, eps=1e-05, momentum=0.1, affine=True, track_running_stats=True)",
        "    )",
        "  )",
        "  (1): ResNetv1_BasicBlock(",
        "    (conv1): Conv2d(64, 64, kernel_size=(3, 3), stride=(1, 1), padding=(1, 1), bias=False)",
        "    (bn1): BatchNorm2d(64, eps=1e-05, momentum=0.1, affine=True, track_running_stats=True)",
        "    (relu1): ReLU(inplace=True)",
        "    (conv2): Conv2d(64, 64, kernel_size=(3, 3), stride=(1, 1), padding=(1, 1), bias=False)",
        "    (bn2): BatchNorm2d(64, eps=1e-05, momentum=0.1, affine=True, track_running_stats=True)",
        "    (relu2): ReLU(inplace=True)",
        "  )",
        "  (2): ResNetv1_BasicBlock(",
        "    (conv1): Conv2d(64, 64, kernel_size=(3, 3), stride=(1, 1), padding=(1, 1), bias=False)",
        "    (bn1): BatchNorm2d(64, eps=1e-05, momentum=0.1, affine=True, track_running_stats=True)",
        "    (relu1): ReLU(inplace=True)",
        "    (conv2): Conv2d(64, 64, kernel_size=(3, 3), stride=(1, 1), padding=(1, 1), bias=False)",
        "    (bn2): BatchNorm2d(64, eps=1e-05, momentum=0.1, affine=True, track_running_stats=True)",
        "    (relu2): ReLU(inplace=True)",
        "  )",
        ")",
        "(avgPool): AdaptiveAvgPool2d(output_size=(1, 1))",
        "(fc): Linear(in_features=64, out_features=10, bias=True)"
    ],
    "Batch Size": 128,
    "Total Epoch": 300,
    "Device": "cuda",
    "Loss Function": "CrossEntropyLoss",
    "Optimizer": {
        "Type": "SGD",
        "State": {},
        "param_groups": {
            "lr": 0.1,
            "momentum": 0.9,
            "dampening": 0,
            "weight_decay": 0.0001,
            "nesterov": false,
            "initial_lr": 0.1,
…
