{
    "Model": "MyModel",
    "Model Size Trainable": 46170,
    "Model Size Total": 46170,
    "Model Structure": [
        "(conv_1): Conv2d(3, 8, kernel_size=(3, 3), stride=(1, 1), padding=(1, 1), bias=False)",
        "(bn_1): BatchNorm2d(8, eps=1e-05, momentum=0.1, affine=True, track_running_stats=True)",
        "(relu_1): ReLU(inplace=True)",
        "(highway_12): Sequential(",
        "  (0): Conv2d(8, 8, kernel_size=(1, 1), stride=(1, 1))",
        "  (1): BatchNorm2d(8, eps=1e-05, momentum=0.1, affine=True, track_running_stats=True)",
        ")",
        "(highway_13): Sequential(",
        "  (0): Conv2d(8, 16, kernel_size=(1, 1), stride=(2, 2))",
        "  (1): BatchNorm2d(16, eps=1e-05, momentum=0.1, affine=True, track_running_stats=True)",
        ")",
        "(highway_14): Sequential(",
        "  (0): Conv2d(8, 32, kernel_size=(1, 1), stride=(4, 4))",
        "  (1): BatchNorm2d(32, eps=1e-05, momentum=0.1, affine=True, track_running_stats=True)",
        ")",
        "(conv2_x): Sequential(",
        "  (0): ResidualBlock(",
        "    (conv_1): Conv2d(8, 8, kernel_size=(3, 3), stride=(1, 1), padding=(1, 1), bias=False)",
        "    (bn_1): BatchNorm2d(8, eps=1e-05, momentum=0.1, affine=True, track_running_stats=True)",
        "    (relu_1): ReLU(inplace=True)",
        "    (conv_2): Conv2d(8, 8, kernel_size=(3, 3), stride=(1, 1), padding=(1, 1), bias=False)",
        "    (bn_2): BatchNorm2d(8, eps=1e-05, momentum=0.1, affine=True, track_running_stats=True)",
        "    (relu_2): ReLU(inplace=True)",
        "  )",
        "  (1): ResidualBlock(",
        "    (conv_1): Conv2d(8, 8, kernel_size=(3, 3), stride=(1, 1), padding=(1, 1), bias=False)",
        "    (bn_1): BatchNorm2d(8, eps=1e-05, momentum=0.1, affine=True, track_running_stats=True)",
        "    (relu_1): ReLU(inplace=True)",
        "    (conv_2): Conv2d(8, 8, kernel_size=(3, 3), stride=(1, 1), padding=(1, 1), bias=False)",
        "    (bn_2): BatchNorm2d(8, eps=1e-05, momentum=0.1, affine=True, track_running_stats=True)",
        "    (relu_2): ReLU(inplace=True)",
        "  )",
        ")",
        "(relu_2): ReLU(inplace=True)",
        "(highway_23): Sequential(",
        "  (0): Conv2d(8, 16, kernel_size=(1, 1), stride=(2, 2))",
        "  (1): BatchNorm2d(16, eps=1e-05, momentum=0.1, affine=True, track_running_stats=True)",
        ")",
        "(highway_24): Sequential(",
        "  (0): Conv2d(8, 32, kernel_size=(1, 1), stride=(4, 4))",
        "  (1): BatchNorm2d(32, eps=1e-05, momentum=0.1, affine=True, track_running_stats=True)",
        ")",
        "(conv3_x): Sequential(",
        "  (0): ResidualBlock(",
        "    (conv_1): Conv2d(8, 16, kernel_size=(3, 3), stride=(2, 2), padding=(1, 1), bias=False)",
        "    (bn_1): BatchNorm2d(16, eps=1e-05, momentum=0.1, affine=True, track_running_stats=True)",
        "    (relu_1): ReLU(inplace=True)",
        "    (conv_2): Conv2d(16, 16, kernel_size=(3, 3), stride=(1, 1), padding=(1, 1), bias=False)",
        "    (bn_2): BatchNorm2d(16, eps=1e-05, momentum=0.1, affine=True, track_running_stats=True)",
        "    (relu_2): ReLU(inplace=True)",
        "    (downsample): Sequential(",
        "      (0): Conv2d(8, 16, kernel_size=(1, 1), stride=(2, 2))",
        "      (1): BatchNorm2d(16, eps=1e-05, momentum=0.1, affine=True, track_running_stats=True)",
        "    )",
        "  )",
        "  (1): ResidualBlock(",
        "    (conv_1): Conv2d(16, 16, kernel_size=(3, 3), stride=(1, 1), padding=(1, 1), bias=False)",
        "    (bn_1): BatchNorm2d(16, eps=1e-05, momentum=0.1, affine=True, track_running_stats=True)",
        "    (relu_1): ReLU(inplace=True)",
        "    (conv_2): Conv2d(16, 16, kernel_size=(3, 3), stride=(1, 1), padding=(1, 1), bias=False)",
        "    (bn_2): BatchNorm2d(16, eps=1e-05, momentum=0.1, affine=True, track_running_stats=True)",
        "    (relu_2): ReLU(inplace=True)",
        "  )",
        ")",
        "(relu_3): ReLU(inplace=True)",
        "(highway_34): Sequential(",
        "  (0): Conv2d(16, 32, kernel_size=(1, 1), stride=(2, 2))",
        "  (1): BatchNorm2d(32, eps=1e-05, momentum=0.1, affine=True, track_running_stats=True)",
        ")",
        "(conv4_x): Sequential(",
        "  (0): ResidualBlock(",
        "    (conv_1): Conv2d(16, 32, kernel_size=(3, 3), stride=(2, 2), padding=(1, 1), bias=False)",
        "    (bn_1): BatchNorm2d(32, eps=1e-05, momentum=0.1, affine=True, track_running_stats=True)",
        "    (relu_1): ReLU(inplace=True)",
        "    (conv_2): Conv2d(32, 32, kernel_size=(3, 3), stride=(1, 1), padding=(1, 1), bias=False)",
        "    (bn_2): BatchNorm2d(32, eps=1e-05, momentum=0.1, affine=True, track_running_stats=True)",
        "    (relu_2): ReLU(inplace=True)",
        "    (downsample): Sequential(",
        "      (0): Conv2d(16, 32, kernel_size=(1, 1), stride=(2, 2))",
        "      (1): BatchNorm2d(32, eps=1e-05, momentum=0.1, affine=True, track_running_stats=True)",
        "    )",
        "  )",
        "  (1): ResidualBlock(",
        "    (conv_1): Conv2d(32, 32, kernel_size=(3, 3), stride=(1, 1), padding=(1, 1), bias=False)",
        "    (bn_1): BatchNorm2d(32, eps=1e-05, momentum=0.1, affine=True, track_running_stats=True)",
        "    (relu_1): ReLU(inplace=True)",
        "    (conv_2): Conv2d(32, 32, kernel_size=(3, 3), stride=(1, 1), padding=(1, 1), bias=False)",
        "    (bn_2): BatchNorm2d(32, eps=1e-05, momentum=0.1, affine=True, track_running_stats=True)",
        "    (relu_2): ReLU(inplace=True)",
        "  )",
        ")",
        "(relu_4): ReLU(inplace=True)",
        "(avgPool): AdaptiveAvgPool2d(output_size=(1, 1))",
        "(fc): Linear(in_features=32, out_features=10, bias=True)"
    ],
    "Batch Size": 128,
    "Total Epoch": 350,
    "Device": "cuda",
    "Loss Function": "CrossEntropyLoss",
    "Optimizer": {
        "Type": "SGD",
        "State": {},
        "param_groups": {
            "lr": 0.1,
            "momentum": 0.9,
            "dampening": 0,
            "weight_decay": 0.0001,
            "nesterov": false,
            "initial_lr": 0.1,
…
