{
    "Model": "SqueezeNet_Basic",
    "Model Size Trainable": 740554,
    "Model Size Total": 740554,
    "Model Structure": [
        "(conv_1): Conv2d(3, 96, kernel_size=(7, 7), stride=(2, 2), padding=(3, 3))",
        "(relu_1): ReLU(inplace=True)",
        "(maxpool_1): MaxPool2d(kernel_size=3, stride=2, padding=0, dilation=1, ceil_mode=True)",
        "(fire_2): fireModule(",
        "  (conv_1): Conv2d(96, 16, kernel_size=(1, 1), stride=(1, 1))",
        "  (relu_1): ReLU(inplace=True)",
        "  (conv_21): Conv2d(16, 64, kernel_size=(1, 1), stride=(1, 1))",
        "  (conv_23): Conv2d(16, 64, kernel_size=(3, 3), stride=(1, 1), padding=(1, 1))",
        "  (relu_2): ReLU(inplace=True)",
        ")",
        "(fire_3): fireModule(",
        "  (conv_1): Conv2d(128, 16, kernel_size=(1, 1), stride=(1, 1))",
        "  (relu_1): ReLU(inplace=True)",
        "  (conv_21): Conv2d(16, 64, kernel_size=(1, 1), stride=(1, 1))",
        "  (conv_23): Conv2d(16, 64, kernel_size=(3, 3), stride=(1, 1), padding=(1, 1))",
        "  (relu_2): ReLU(inplace=True)",
        ")",
        "(fire_4): fireModule(",
        "  (conv_1): Conv2d(128, 32, kernel_size=(1, 1), stride=(1, 1))",
        "  (relu_1): ReLU(inplace=True)",
        "  (conv_21): Conv2d(32, 128, kernel_size=(1, 1), stride=(1, 1))",
        "  (conv_23): Conv2d(32, 128, kernel_size=(3, 3), stride=(1, 1), padding=(1, 1))",
        "  (relu_2): ReLU(inplace=True)",
        ")",
        "(maxpool_2): MaxPool2d(kernel_size=3, stride=2, padding=0, dilation=1, ceil_mode=True)",
        "(fire_5): fireModule(",
        "  (conv_1): Conv2d(256, 32, kernel_size=(1, 1), stride=(1, 1))",
        "  (relu_1): ReLU(inplace=True)",
        "  (conv_21): Conv2d(32, 128, kernel_size=(1, 1), stride=(1, 1))",
        "  (conv_23): Conv2d(32, 128, kernel_size=(3, 3), stride=(1, 1), padding=(1, 1))",
        "  (relu_2): ReLU(inplace=True)",
        ")",
        "(fire_6): fireModule(",
        "  (conv_1): Conv2d(256, 48, kernel_size=(1, 1), stride=(1, 1))",
        "  (relu_1): ReLU(inplace=True)",
        "  (conv_21): Conv2d(48, 192, kernel_size=(1, 1), stride=(1, 1))",
        "  (conv_23): Conv2d(48, 192, kernel_size=(3, 3), stride=(1, 1), padding=(1, 1))",
        "  (relu_2): ReLU(inplace=True)",
        ")",
        "(fire_7): fireModule(",
        "  (conv_1): Conv2d(384, 48, kernel_size=(1, 1), stride=(1, 1))",
        "  (relu_1): ReLU(inplace=True)",
        "  (conv_21): Conv2d(48, 192, kernel_size=(1, 1), stride=(1, 1))",
        "  (conv_23): Conv2d(48, 192, kernel_size=(3, 3), stride=(1, 1), padding=(1, 1))",
        "  (relu_2): ReLU(inplace=True)",
        ")",
        "(fire_8): fireModule(",
        "  (conv_1): Conv2d(384, 64, kernel_size=(1, 1), stride=(1, 1))",
        "  (relu_1): ReLU(inplace=True)",
        "  (conv_21): Conv2d(64, 256, kernel_size=(1, 1), stride=(1, 1))",
        "  (conv_23): Conv2d(64, 256, kernel_size=(3, 3), stride=(1, 1), padding=(1, 1))",
        "  (relu_2): ReLU(inplace=True)",
        ")",
        "(maxpool_3): MaxPool2d(kernel_size=3, stride=2, padding=0, dilation=1, ceil_mode=True)",
        "(fire_9): fireModule(",
        "  (conv_1): Conv2d(512, 64, kernel_size=(1, 1), stride=(1, 1))",
        "  (relu_1): ReLU(inplace=True)",
        "  (conv_21): Conv2d(64, 256, kernel_size=(1, 1), stride=(1, 1))",
        "  (conv_23): Conv2d(64, 256, kernel_size=(3, 3), stride=(1, 1), padding=(1, 1))",
        "  (relu_2): ReLU(inplace=True)",
        ")",
        "(dropout): Dropout(p=0.5, inplace=False)",
        "(conv_10): Conv2d(512, 10, kernel_size=(1, 1), stride=(1, 1))",
        "(relu_2): ReLU(inplace=True)",
        "(avgpool): AdaptiveAvgPool2d(output_size=(1, 1))"
    ],
    "Batch Size": 128,
    "Total Epoch": 350,
    "Device": "cuda",
    "Loss Function": "CrossEntropyLoss",
    "Optimizer": {
        "Type": "SGD",
        "State": {},
        "param_groups": {
            "lr": 0.004,
            "momentum": 0.9,
…
