{
    "Model": "MobileNetv1",
    "Model Size Trainable": 3228170,
    "Model Size Total": 3228170,
    "Model Structure": [
        "(conv1): Sequential(",
        "  (0): Conv2d(3, 32, kernel_size=(3, 3), stride=(2, 2), padding=(1, 1))",
        "  (1): BatchNorm2d(32, eps=1e-05, momentum=0.1, affine=True, track_running_stats=True)",
        "  (2): ReLU(inplace=True)",
        ")",
        "(block1): Mobilev1Block(",
        "  (dwConv1): Sequential(",
        "    (0): Conv2d(32, 32, kernel_size=(3, 3), stride=(1, 1), padding=(1, 1), groups=32)",
        "    (1): BatchNorm2d(32, eps=1e-05, momentum=0.1, affine=True, track_running_stats=True)",
        "    (2): ReLU(inplace=True)",
        "  )",
        "  (stdConv2): Sequential(",
        "    (0): Conv2d(32, 64, kernel_size=(1, 1), stride=(1, 1))",
        "    (1): BatchNorm2d(64, eps=1e-05, momentum=0.1, affine=True, track_running_stats=True)",
        "    (2): ReLU(inplace=True)",
        "  )",
        ")",
        "(block2): Mobilev1Block(",
        "  (dwConv1): Sequential(",
        "    (0): Conv2d(64, 64, kernel_size=(3, 3), stride=(2, 2), padding=(1, 1), groups=64)",
        "    (1): BatchNorm2d(64, eps=1e-05, momentum=0.1, affine=True, track_running_stats=True)",
        "    (2): ReLU(inplace=True)",
        "  )",
        "  (stdConv2): Sequential(",
        "    (0): Conv2d(64, 128, kernel_size=(1, 1), stride=(1, 1))",
        "    (1): BatchNorm2d(128, eps=1e-05, momentum=0.1, affine=True, track_running_stats=True)",
        "    (2): ReLU(inplace=True)",
        "  )",
        ")",
        "(block3): Mobilev1Block(",
        "  (dwConv1): Sequential(",
        "    (0): Conv2d(128, 128, kernel_size=(3, 3), stride=(1, 1), padding=(1, 1), groups=128)",
        "    (1): BatchNorm2d(128, eps=1e-05, momentum=0.1, affine=True, track_running_stats=True)",
        "    (2): ReLU(inplace=True)",
        "  )",
        "  (stdConv2): Sequential(",
        "    (0): Conv2d(128, 128, kernel_size=(1, 1), stride=(1, 1))",
        "    (1): BatchNorm2d(128, eps=1e-05, momentum=0.1, affine=True, track_running_stats=True)",
        "    (2): ReLU(inplace=True)",
        "  )",
        ")",
        "(block4): Mobilev1Block(",
        "  (dwConv1): Sequential(",
        "    (0): Conv2d(128, 128, kernel_size=(3, 3), stride=(2, 2), padding=(1, 1), groups=128)",
        "    (1): BatchNorm2d(128, eps=1e-05, momentum=0.1, affine=True, track_running_stats=True)",
        "    (2): ReLU(inplace=True)",
        "  )",
        "  (stdConv2): Sequential(",
        "    (0): Conv2d(128, 256, kernel_size=(1, 1), stride=(1, 1))",
        "    (1): BatchNorm2d(256, eps=1e-05, momentum=0.1, affine=True, track_running_stats=True)",
        "    (2): ReLU(inplace=True)",
        "  )",
        ")",
        "(block5): Mobilev1Block(",
        "  (dwConv1): Sequential(",
        "    (0): Conv2d(256, 256, kernel_size=(3, 3), stride=(1, 1), padding=(1, 1), groups=256)",
        "    (1): BatchNorm2d(256, eps=1e-05, momentum=0.1, affine=True, track_running_stats=True)",
        "    (2): ReLU(inplace=True)",
        "  )",
        "  (stdConv2): Sequential(",
        "    (0): Conv2d(256, 256, kernel_size=(1, 1), stride=(1, 1))",
        "    (1): BatchNorm2d(256, eps=1e-05, momentum=0.1, affine=True, track_running_stats=True)",
        "    (2): ReLU(inplace=True)",
        "  )",
        ")",
        "(block6): Mobilev1Block(",
        "  (dwConv1): Sequential(",
        "    (0): Conv2d(256, 256, kernel_size=(3, 3), stride=(2, 2), padding=(1, 1), groups=256)",
        "    (1): BatchNorm2d(256, eps=1e-05, momentum=0.1, affine=True, track_running_stats=True)",
        "    (2): ReLU(inplace=True)",
        "  )",
        "  (stdConv2): Sequential(",
        "    (0): Conv2d(256, 512, kernel_size=(1, 1), stride=(1, 1))",
        "    (1): BatchNorm2d(512, eps=1e-05, momentum=0.1, affine=True, track_running_stats=True)",
        "    (2): ReLU(inplace=True)",
        "  )",
        ")",
        "(iden): Sequential(",
        "  (0): Mobilev1Block(",
        "    (dwConv1): Sequential(",
        "      (0): Conv2d(512, 512, kernel_size=(3, 3), stride=(1, 1), padding=(1, 1), groups=512)",
        "      (1): BatchNorm2d(512, eps=1e-05, momentum=0.1, affine=True, track_running_stats=True)",
        "      (2): ReLU(inplace=True)",
        "    )",
        "    (stdConv2): Sequential(",
        "      (0): Conv2d(512, 512, kernel_size=(1, 1), stride=(1, 1))",
        "      (1): BatchNorm2d(512, eps=1e-05, momentum=0.1, affine=True, track_running_stats=True)",
        "      (2): ReLU(inplace=True)",
        "    )",
        "  )",
        "  (1): Mobilev1Block(",
        "    (dwConv1): Sequential(",
        "      (0): Conv2d(512, 512, kernel_size=(3, 3), stride=(1, 1), padding=(1, 1), groups=512)",
        "      (1): BatchNorm2d(512, eps=1e-05, momentum=0.1, affine=True, track_running_stats=True)",
        "      (2): ReLU(inplace=True)",
        "    )",
        "    (stdConv2): Sequential(",
        "      (0): Conv2d(512, 512, kernel_size=(1, 1), stride=(1, 1))",
        "      (1): BatchNorm2d(512, eps=1e-05, momentum=0.1, affine=True, track_running_stats=True)",
        "      (2): ReLU(inplace=True)",
        "    )",
        "  )",
        "  (2): Mobilev1Block(",
        "    (dwConv1): Sequential(",
        "      (0): Conv2d(512, 512, kernel_size=(3, 3), stride=(1, 1), padding=(1, 1), groups=512)",
        "      (1): BatchNorm2d(512, eps=1e-05, momentum=0.1, affine=True, track_running_stats=True)",
        "      (2): ReLU(inplace=True)",
        "    )",
        "    (stdConv2): Sequential(",
        "      (0): Conv2d(512, 512, kernel_size=(1, 1), stride=(1, 1))",
        "      (1): BatchNorm2d(512, eps=1e-05, momentum=0.1, affine=True, track_running_stats=True)",
        "      (2): ReLU(inplace=True)",
        "    )",
        "  )",
        "  (3): Mobilev1Block(",
        "    (dwConv1): Sequential(",
        "      (0): Conv2d(512, 512, kernel_size=(3, 3), stride=(1, 1), padding=(1, 1), groups=512)",
        "      (1): BatchNorm2d(512, eps=1e-05, momentum=0.1, affine=True, track_running_stats=True)",
        "      (2): ReLU(inplace=True)",
        "    )",
        "    (stdConv2): Sequential(",
        "      (0): Conv2d(512, 512, kernel_size=(1, 1), stride=(1, 1))",
        "      (1): BatchNorm2d(512, eps=1e-05, momentum=0.1, affine=True, track_running_stats=True)",
        "      (2): ReLU(inplace=True)",
        "    )",
        "  )",
        "  (4): Mobilev1Block(",
        "    (dwConv1): Sequential(",
        "      (0): Conv2d(512, 512, kernel_size=(3, 3), stride=(1, 1), padding=(1, 1), groups=512)",
        "      (1): BatchNorm2d(512, eps=1e-05, momentum=0.1, affine=True, track_running_stats=True)",
        "      (2): ReLU(inplace=True)",
        "    )",
        "    (stdConv2): Sequential(",
        "      (0): Conv2d(512, 512, kernel_size=(1, 1), stride=(1, 1))",
        "      (1): BatchNorm2d(512, eps=1e-05, momentum=0.1, affine=True, track_running_stats=True)",
        "      (2): ReLU(inplace=True)",
        "    )",
        "  )",
        ")",
        "(block7): Mobilev1Block(",
        "  (dwConv1): Sequential(",
        "    (0): Conv2d(512, 512, kernel_size=(3, 3), stride=(2, 2), padding=(1, 1), groups=512)",
        "    (1): BatchNorm2d(512, eps=1e-05, momentum=0.1, affine=True, track_running_stats=True)",
        "    (2): ReLU(inplace=True)",
        "  )",
        "  (stdConv2): Sequential(",
        "    (0): Conv2d(512, 1024, kernel_size=(1, 1), stride=(1, 1))",
        "    (1): BatchNorm2d(1024, eps=1e-05, momentum=0.1, affine=True, track_running_stats=True)",
        "    (2): ReLU(inplace=True)",
        "  )",
        ")",
        "(block8): Mobilev1Block(",
        "  (dwConv1): Sequential(",
        "    (0): Conv2d(1024, 1024, kernel_size=(3, 3), stride=(1, 1), padding=(1, 1), groups=1024)",
        "    (1): BatchNorm2d(1024, eps=1e-05, momentum=0.1, affine=True, track_running_stats=True)",
        "    (2): ReLU(inplace=True)",
        "  )",
        "  (stdConv2): Sequential(",
        "    (0): Conv2d(1024, 1024, kernel_size=(1, 1), stride=(1, 1))",
        "    (1): BatchNorm2d(1024, eps=1e-05, momentum=0.1, affine=True, track_running_stats=True)",
        "    (2): ReLU(inplace=True)",
        "  )",
        ")",
        "(avgPool): AdaptiveAvgPool2d(output_size=(1, 1))",
        "(fc): Linear(in_features=1024, out_features=10, bias=True)"
    ],
    "Batch Size": 128,
    "Total Epoch": 350,
    "Device": "cuda",
    "Loss Function": "CrossEntropyLoss",
    "Optimizer": {
        "Type": "SGD",
        "State": {},
        "param_groups": {
            "lr": 0.01,
            "momentum": 0.9,
            "dampening": 0,
            "weight_decay": 0.0005,
            "nesterov": false,
…
